data.pth (torch, 5183 bytes, 6 tensors)

l1.weight f4 [8, 58]
00000000: 8002 143f 3d92 92be 0808 b53e ace9 763e
00000010: 4dc3 063e 069c 1abe e26f 413e effe b83e
00000020: 06d3 533e 628b 0b3f 256c 87be f048 cb3e
00000030: ceea 863e 49f5 113f cfe7 663e 7fa0 073f
00000040: d604 c3bc 8279 96be 88d5 6b3e adb2 5f3e
00000050: 172e 8e3e 06d0 2a3e 76ba d03e d936 0d3e
00000060: 91a4 293e 4aef db3e 797c e43e e086 2a3e
00000070: 36ac 20bf 23df 60be 1089 30bf 7e24 e63d
00000080: 87f4 f23e 7d0a 093f 62fc b1bd e4bb 9c3e
00000090: 69e6 11be 7581 da3e f431 0fbe 84fe 2ebe
000000a0: 088f b63e eede 753e 6d18 b63e 8902 1cbe
000000b0: d18d a53e 19e0 b83e 9e18 7abe b3b0 0c3f
000000c0: 508d a6be bf39 d53e 411a e83e 0917 ec3d
000000d0: 85e9 b9be e6e2 9cbe fdcf 7a3e 8637 a7be
000000e0: fc38 7c3e 7ae3 f33e 02fc 4e3f 95a4 693f
000000f0: 6a81 743e e653 6abe 3d9c e6be 111e b43d
00000100: 75eb 08bf a821 263e e985 9fbd 2379 db3e
00000110: 8818 b4bd 43a7 083e 031d 7ebe 3dc0 1f3f
00000120: 64c6 fe3e b152 013f 7b26 0abe c677 233f
00000130: 0937 b03e 3725 79be 2fea 08bf 48e9 08bf
00000140: 859a 1e3f ace3 08bf dc09 f8be 814c c03b
00000150: 568b b53e d898 07be 9b96 043f a2b8 a73d
00000160: 9428 0c3f d1e6 aebe e282 363f 996c fa3e
00000170: b309 d93d d54d 423d ef95 5a3f a1fe 933e
00000180: 8dbe 68bc 809d 89be 9939 d43e 6e10 393e
00000190: e2c4 2f3e f721 4f3d 5e00 e7be ef96 143f
000001a0: 7ba1 093f 251f 173f 955d 753f 4e6c a73f
000001b0: ee6b 1c3f 7693 28be 2b76 8bbe 086c 10be
000001c0: 6eba 9b3e ed5c 71be da39 643e 1617 843e
000001d0: db6e 38be b971 893e 34a8 d7be 58c2 ecbe
000001e0: 43b6 c53e 547c 383f b03b 313f f7e7 97bd
000001f0: 4f55 8fbe 7e53 12bf a26d 2d3f abb9 abbe
00000200: 5fb3 24be 5e5f 3b3e 1a78 a83e 44f2 b93e
00000210: 9093 293f 038f 9a3e 80a8 21bd 06a7 90be
00000220: 6bb1 573f 37f7 04bf 85c8 da3c ad12 05bf
00000230: 8526 01bf 4d16 12bd c004 473d 48fb a3be
00000240: f99a 023f 4df8 323f 66c0 f73e 3bfe 313f
00000250: 2411 a73e d116 8bbe c10c 2a3f c405 ddbe
00000260: 6fe8 b53e 9919 bb3d a09c 4f3f c416 283f
00000270: 5a44 cdbe 1621 80be 6ee4 6bbc 4be8 353f
00000280: a59d 403f 1ddd ae3e 72c2 b93e 8804 43be
00000290: 2b68 cb3e a2b4 a4be 70ae f9bd 464d 193f
000002a0: 3648 133f 86f1 5d3f 9d22 9c3d 7c12 463f
000002b0: c0d7 6abe 4b23 893d 9f69 b03e 1888 703d
000002c0: 87c8 87be 4980 b73d 557a c53d 890d 6fbe
000002d0: c82a a5be a50c 96bb 5ff7 b6bd 5088 ecbe
000002e0: 863a 16bd a048 6ebe 5e3d 5d3e 5caf 15be
000002f0: ea67 afbe a6d6 b2be 897e 89bc 8012 95bd
00000300: d82f 1dbd b79d 9a3e d45e 80be e3a9 ed3e
00000310: f4a0 d33e cb90 0b3f 0641 dc3e 7113 e53e
00000320: bada 59be f90e 7d3e 5a54 6abe cd73 4bbe
00000330: 34b8 25be 6bda 42be d8a2 b4be ff8f 8d3e
00000340: d3e4 33be 59c6 91be 714a 63be 9ac7 17be
00000350: 12f9 99bd 3b74 2dbe 8be0 06bf 0e6a 75bc
00000360: 0dc3 3bbe a461 6bbe 1504 b9be b5b9 15be
00000370: 2b66 27be 3b32 6abe 768a 2fbe 2717 4e3f
00000380: 30ba 3f3e 3f76 043b 0c02 293d 9dfe 65be
00000390: 2a49 15bd 7101 fbbd a55b 5bbe 20e2 863e
000003a0: 9e59 063e 7744 103f 530d 043f c567 043f
000003b0: 7bda 203f 8fda 26be 8000 2abf 299b 053f
000003c0: 8744 033f cd6a 273f 39da 9dbe 5a69 0f3f
000003d0: 788a 043f c34e 00bf de72 9f3e 7c18 e8be
000003e0: 33a6 a1be e3b7 043f d7bb b8be a9f8 0d3f
000003f0: 7f70 52bf c393 103f 0179 293e 7070 0a3f
0.57816315 -0.28627196 0.3535769 0.24112576 0.13160439 -0.1509858 0.18890336 0.36132
0.20685968 0.54509556 -0.26449695 0.39704084 0.26351017 0.570149 0.22549365 0.5297927
-0.023806017 -0.29389578 0.23030674 0.21845503 0.2776954 0.16680917 0.40767258 0.13790454
0.16566683 0.42956 0.44626215 0.16653013 -0.62762773 -0.2196012 -0.6895914 0.11237429
0.47452185 0.5353163 -0.08690716 0.306121 -0.14248051 0.42676893 -0.139839 -0.17089278
0.35656 0.24010822 0.3556551 -0.15235342 0.3233476 0.36108473 -0.24423453 0.5495712
-0.32529688 0.4164562 0.4533253 0.11527831 -0.36310974 -0.3064186 0.24493404 -0.3265955
0.24631113 0.47634488 0.80853283 0.9126676 0.23877493 -0.22883567 -0.45041075 0.08794797
-0.5348428 0.16223776 -0.07789213 0.42865857 -0.087937415 0.13345055 -0.24815755 0.6240271
0.49760735 0.505168 -0.13491242 0.63854635 0.34416988 -0.24330603 -0.53482336 -0.5348096
0.6195453 -0.534724 -0.48445022 0.005868495 0.35457867 -0.13241899 0.51792306 0.08189513
0.5474942 -0.34160474 0.7129346 0.48910978 0.10597553 0.047437508 0.8538503 0.28905204
-0.014205587 -0.26877975 0.41450194 0.18072674 0.17164949 0.0505695 -0.45117468 0.58042806
0.53762025 0.590319 0.9584592 1.3079927 0.6110219 -0.16462502 -0.27238593 -0.1410371
0.30415672 -0.23570605 0.22287694 0.25798863 -0.18011038 0.26844576 -0.42120516 -0.46242023
0.38615617 0.7206471 0.692317 -0.07417291 -0.27994773 -0.5715865 0.6774541 -0.3354009
-0.1608405 0.18298098 0.3290413 0.36317647 0.6624079 0.30187234 -0.039467335 -0.2825243
0.84255093 -0.5193972 0.026706943 -0.5198162 -0.504494 -0.0356658 0.048588514 -0.3202765
0.5101772 0.69910127 0.48388976 0.6952855 0.32630265 -0.27165845 0.6642571 -0.4316846
0.35528895 0.09135742 0.81098366 0.6565974 -0.4009121 -0.25025243 -0.014397724 0.71057576
0.75240546 0.3415307 0.36281163 -0.19044697 0.3972791 -0.32169062 -0.121914744 0.59883535
0.5753206 0.8669666 0.076237895 0.77371955 -0.22933865 0.06696185 0.34455582 0.05872354
-0.26520178 0.08960015 0.096424736 -0.23345007 -0.32259202 -0.004579144 -0.08933901 -0.46197748
-0.036676906 -0.23269892 0.21605441 -0.14617676 -0.34258968 -0.3492939 -0.01678397 -0.07278919
-0.038375705 0.30198452 -0.25072348 0.46418676 0.41333735 0.5451781 0.4301836 0.44741395
-0.21274844 0.24712743 -0.2288374 -0.19868393 -0.16183549 -0.19028632 -0.3528049 0.27648923
-0.17567758 -0.2847164 -0.22196366 -0.14822236 -0.075182095 -0.1693887 -0.52686375 -0.014978899
-0.18336125 -0.22986466 -0.36135927 -0.14621623 -0.16347568 -0.22870724 -0.17142662 0.8050408
0.18723369 0.0020212082 0.041261718 -0.22460409 -0.036446728 -0.12256134 -0.21421678 0.26344395
0.13120124 0.5635447 0.5158283 0.5172084 0.62833375 -0.16294311 -0.6640701 0.5218988
0.5127644 0.6539734 -0.30830553 0.5602013 0.51773787 -0.5012018 0.31142324 -0.4533118
-0.31572112 0.5184309 -0.3608081 0.5545755 -0.82202905 0.56475466 0.16550066 0.54077816

l1.bias f4 [8]
00000000: 17bc 803f 01e9 083f 56f0 043f c80a 213f
00000010: 0570 523f 3937 643f 4450 813f 32ff 3c3f
1.00574 0.53480536 0.51929224 0.62907076 0.8220218 0.89146763 1.010262 0.738269

l2.weight f4 [8, 8]
00000000: 5f4f 8c3f cbf0 c63f 0b54 a9be 6db4 cf3d
00000010: 96d3 393f af34 9cbf 5ec8 64bc d9c6 393f
00000020: b4c9 35bf df93 1c3e a299 383f 2819 ffbe
00000030: a8f1 2e3f a516 963f 4358 a8be bf09 773f
00000040: 02b0 743e 604c 95be 3d95 1abd 2aa4 38be
00000050: 97c5 87be 18d7 663e 6b8c 74be 47bd b1be
00000060: d0f3 2cbe 23f2 9d3a a04a b2be 29e5 9c3e
00000070: 12ae a4be 10e8 ac3d 20ee ee3c 86a8 f8bd
00000080: e8ec 033f 499b 3dbe 6b26 c33f bd3f e6be
00000090: b764 b0bf 1018 653f d5f5 a4be d851 b93f
000000a0: 2d51 d83e d665 04be fa15 80bf 07b1 abbf
000000b0: ccff 3a3f 67cd 88bf 2a47 3d3f 492b 613f
000000c0: 8d74 59be 6824 47bd d826 283d 14cf fc3d
000000d0: 2606 1fbe 6017 6ebd 4107 b23e 4e1d 2ebe
000000e0: a569 863f 766b 67bf 52ab e9be 6ef5 d13e
000000f0: 5095 943f 36e3 593f 2c1f b63f fc8c cfbd
1.0961722 1.5542234 -0.33071932 0.10141835 0.7258848 -1.2203578 -0.013963787 0.7256904
-0.710109 0.15290783 0.72109425 -0.4982388 0.6833749 1.172566 -0.32879838 0.96499246
0.23895267 -0.29159832 -0.03773998 -0.18031374 -0.26517937 0.22542989 -0.2388169 -0.3471472
-0.16889882 0.0012050312 -0.3482256 0.30643585 -0.32164055 0.084427 0.029166281 -0.12141518
0.51533365 -0.18516268 1.5246099 -0.44970503 -1.3780736 0.8948984 -0.32218805 1.4478102
0.42249432 -0.12929472 -1.0006707 -1.34134 0.73046565 -1.0687684 0.7393671 0.8795667
-0.21235867 -0.048618704 0.04105267 0.123441845 -0.15529689 -0.05812776 0.3477116 -0.17003366
1.050099 -0.9039835 -0.4563852 0.4100756 1.1608067 0.8511232 1.4228263 -0.101343125

l2.bias f4 [8]
00000000: 8259 943e 7cee 043f 4fb9 bebe 1040 97be
00000010: 8a4c 1a3f abe1 50be 3c20 71be 6eed b33e
0.2897454 0.519264 -0.37250754 -0.29541063 0.6027304 -0.20398585 -0.23547453 0.35142082

l3.weight f4 [7, 8]
00000000: 23da d4bf 3e62 2f3e dd86 74be 56a0 2c3e
00000010: 806b 503f 4185 0dbe e159 ad3e 8387 ebbf
00000020: 46ab d23e df83 5fbf 122d c2be 1bcd 67be
00000030: b0cc 813e e6f3 c1bd 9230 ecbd 74c0 a3bf
00000040: a1ca 84be 1480 9d3e d797 51be 67cc ecbd
00000050: 8f48 723e 92c5 e7bf a429 ff3d b8a5 b1bf
00000060: ceab c8bf f24c 8dbd 65e3 773e 5298 4b3d
00000070: 8c0e f93e b0eb d1be 78fc ef3d fdad 233e
00000080: 038c 5bbf 110e 86be cb50 76be c145 a03e
00000090: a448 8fbf b8f7 62bf 2267 3d3e 1292 853f
000000a0: 2630 22bc fd5e 51bf 710c 04bc 2a0a 9abe
000000b0: d3d8 5bbf e843 863f f0f5 3c3d d26c 08be
000000c0: 450e 603f 0ad3 9fbf cc40 3a3e 60fe d2bd
000000d0: 800a a4bf 06c0 abbf c05f 733c 1800 27be
-1.662907 0.1712732 -0.23879571 0.16858038 0.8141403 -0.13820364 0.33857635 -1.840073
0.41146296 -0.87310594 -0.3792501 -0.22636835 0.25351477 -0.09470348 -0.115327016 -1.2793107
-0.25935844 0.30761778 -0.20468079 -0.11562424 0.23660491 -1.8107169 0.12459114 -1.3878698
-1.5677431 -0.06899442 0.24207838 0.04970581 0.4864391 -0.41000128 0.117180765 0.1598434
-0.85760516 -0.26182607 -0.24054258 0.31303218 -1.1194043 -0.8865924 0.18496373 1.0435202
-0.009899175 -0.81785566 -0.008059607 -0.3008588 -0.8587772 1.0489473 0.04613298 -0.13322762
0.87521774 -1.2486279 0.1818878 -0.103024244 -1.2815704 -1.3417976 0.014854372 -0.1630863

l3.bias f4 [7]
00000000: 538e 003e 5bdb 04bf 7c2c c5bc 5f75 563e
00000010: 91e3 943e 97e4 32be 3806 493f
0.12554292 -0.5189721 -0.024069063 0.20943211 0.2907987 -0.17470013 0.78525114
