data.pth (torch, 5183 bytes, 6 tensors)

l1.weight f4 [8, 58]
-0.164388 0.60044956 -0.3977587 -0.21479416 -0.18801023 -0.026729604 0.7489673 -0.18307418
-0.31389782 -0.2577547 -0.20569721 -0.22160394 -0.12698989 0.076478176 0.124319516 -0.07146101
0.028929014 0.49250674 0.08433827 -0.25064567 0.7401 -0.3801103 -0.21365982 -0.29682997
-0.3519768 -0.17303225 0.028799877 -0.14915626 0.5410636 0.070488095 0.56193525 0.36707014
-0.09950793 -0.18258393 -0.05285336 -0.49035951 0.67021555 0.08292905 -0.10933413 -0.07271707
-0.31840068 -0.20973662 -0.16089675 -0.09098035 0.50063604 -0.08068147 0.38704473 -0.35273167
0.48173052 -0.7640537 -0.13668917 -0.014722215 -0.010564447 -0.1672588 0.016359014 -0.185364
0.010024746 0.2495476 -0.23382805 -0.15872401 0.09434101 0.42381856 0.19844314 -0.20095326
0.3129776 -0.032830372 0.13972555 -0.1641877 -0.18531212 -0.03954263 0.5037373 0.33371624
-0.01968112 0.5483513 -0.13564228 -0.1524319 0.3102934 0.510333 0.3219594 0.63823026
-0.30634302 0.61037976 0.58896136 0.7199902 0.3444024 0.42595237 -0.15927914 -0.20485882
-0.27832624 0.30385637 0.5078036 0.061610773 -0.19347826 0.07843499 -0.17956376 0.22517426
-0.17153561 -0.05176823 -0.21170494 0.07656369 -0.050926596 -0.1645076 0.21323724 0.24337792
-0.080344334 0.46920764 -0.0919165 -0.7417277 -0.32803342 -0.011044049 -0.10730486 -0.26963338
0.39308426 -0.27910596 -0.03186763 0.115334995 0.05242395 0.3006739 -0.075180575 0.37553078
0.35487115 -0.13185827 -0.08874573 0.28548133 0.1660391 -0.086073354 -0.21103433 0.17787315
0.6284434 -0.27370912 0.11593803 -0.24885483 -0.24187754 0.061431903 0.31045437 0.38585168
-0.12153248 0.7049264 -0.032302838 0.7470798 0.5605235 0.44326836 0.16598451 0.36655688
0.30750257 -0.39842427 0.123783454 -0.023062102 -0.22421375 0.0974518 -0.21899019 0.049337864
0.26747409 0.1340765 -0.25590962 -0.27547684 0.074509606 0.17660372 0.2466564 -0.36114925
-0.21076165 -0.37322992 0.22105117 -0.20781218 0.29149905 -0.45559067 -0.019639075 0.16722143
-0.15399988 -0.23217955 0.19982494 -0.17044489 0.12733743 0.14051624 -0.1943893 -0.26332447
0.3671121 0.19524418 -0.17357504 0.009123506 -0.22230361 0.2589946 0.3620459 -0.12174459
-0.0011926268 0.49906507 0.12060381 0.54735386 0.49596465 0.4469462 0.06528267 -0.040400047
0.5492853 0.08690674 -0.22226857 0.27762386 -0.0058742343 0.34778625 0.30520454 0.25173554
0.6199154 0.21967189 -0.26428363 -0.07968865 -0.3381711 -0.11686587 0.403189 -0.023339346
-0.16389585 0.4632725 -0.045061696 0.37693095 0.0032692037 -0.06800005 -0.12558857 0.20572218
0.31710154 -0.1614275 -0.10366108 0.37071326 -0.041880086 0.8175847 -0.09475299 -0.36981106
-0.02187313 0.10420393 -0.08483267 0.00024310757 0.5281019 -0.0792837 0.3081411 0.1475216
0.80672866 -0.062169958 0.07909169 -0.43886787 0.20510873 0.4832528 -0.077623986 -0.010770583
-0.047193952 0.18323116 0.41552252 -0.13606593 -0.33820903 0.3246254 0.0706211 0.34224388
0.45746985 -0.19157954 0.29204565 -0.21352789 -0.08359013 -0.4085101 0.49502283 -0.37336835
00000000: 5455 28be 10b7 193f 07a7 cbbe 00f3 5bbe
00000010: c185 40be 0bf8 dabc 52bc 3f3f cc77 3bbe
00000020: 37b7 a0be 6df8 83be 4aa2 52be 25ec 62be
00000030: a309 02be 97a0 9c3d 3b9b fe3d 265a 92bd
00000040: 8afc ec3c d829 fc3e 8bb9 ac3d a154 80be
00000050: 3277 3d3f d19d c2be a4c9 5abe 19fa 97be
00000060: 4e36 b4be 5e2f 31be b8ed eb3c 6bbc 18be
00000070: 2583 0a3f 105c 903d fdda 0f3f 9ef0 bb3e
00000080: d0ca cbbd 48f7 3abe c47c 58bd 6710 fbbe
00000090: 3f93 2b3f b5d6 a93d 93ea dfbd b0ec 94bd
000000a0: 6a05 a3be 32c5 56be 1ec2 24be e853 babd
000000b0: af29 003f 543c a5bd ba2a c63e 3f99 b4be
000000c0: 62a5 f63e 0699 43bf 3ff8 0bbe 7235 71bc
000000d0: 8116 2dbc e445 2bbe 5703 863c 0fd0 3dbe
000000e0: d53e 243c 6889 7f3e 9f70 6fbe 8c88 22be
000000f0: dc35 c13d bffe d83e ae34 4b3e b1c6 4dbe
00000100: 9a3e a03e 2479 06bd 3714 0f3e d220 28be
00000110: 76c2 3dbe 74f7 21bd edf4 003f dbdc aa3e
00000120: 4d3a a1bc c060 0c3f cfe5 0abe 1c17 1cbe
00000130: c7de 9e3e 2fa5 023f ddd7 a43e 0f63 233f
00000140: fed8 9cbe d941 1c3f 2cc6 163f 4751 383f
00000150: 8355 b03e 6e16 da3e 121a 23be 83c6 51be
00000160: c780 8ebe 1093 9b3e 6bff 013f 945b 7c3d
00000170: 2a1f 46be 86a2 a03d 90df 37be 1594 663e
00000180: 08a7 2fbe ec0a 54bd 2ec9 58be 6dcd 9c3d
00000190: 6898 50bd ae74 28be dd5a 5a3e 1038 793e
000001a0: 928b a4bd fc3b f03e b83e bcbd dee1 3dbf
000001b0: fff3 a7be 19f2 34bc a7c2 dbbd 630d 8abe
000001c0: 5742 c93e fae6 8ebe a287 02bd c134 ec3d
000001d0: 7fba 563d eef1 993e 46f8 99bd 9245 c03e
000001e0: acb1 b53e db05 07be 52c0 b5bd 9c2a 923e
000001f0: 2706 2a3e 3a47 b0bd 6219 58be 6124 363e
00000200: abe1 203f 9a23 8cbe eb70 ed3d cdd3 7ebe
00000210: bfae 77be 05a0 7b3d e0f3 9e3e 5a8e c53e
00000220: 05e6 f8bd 0e76 343f fb4f 04bd 9f40 3f3f
00000230: 787e 0f3f 12f4 e23e d8f7 293e 58ad bb3e
00000240: fa70 9d3e 44fe cbbe 2e82 fd3d bcec bcbc
00000250: 4a98 65be cf94 c73d f73e 60be 8016 4a3d
00000260: 5df2 883e 5a4b 093e 9606 83be 4d0b 8dbe
00000270: 7e98 983d 9bd7 343e 7f93 7c3e 8ee8 b8be
00000280: e7d1 57be fe17 bfbe 3d5b 623e b7cc 54be
00000290: 5d3f 953e 2e43 e9be 20e2 a0bc 183c 2b3e
000002a0: 25b2 1dbe 7ac0 6dbe e99e 4c3e 1b89 2ebe
000002b0: be64 023e 7de3 0f3e fd0d 47be 77d2 86be
000002c0: 1ef6 bb3e 17ee 473e a8bd 31be c27a 153c
000002d0: 8fa3 63be f19a 843e 155e b93e 3a55 f9bd
000002e0: ea51 9cba 7585 ff3e 21ff f63d 621f 0c3f
000002f0: 14ef fd3e 22d6 e43e ecb2 853d 857a 25bd
00000300: f69d 0c3f 29fc b13d 5f9a 63be b724 8e3e
00000310: a67c c0bb 0a11 b23e c543 9c3e 7be3 803e
00000320: c7b2 1e3f abf1 603e 2f50 87be ce33 a3bd
00000330: c324 adbe 6057 efbd ca6e ce3e 2832 bfbc
00000340: 50d4 27be 0e32 ed3e 9d92 38bd 18fd c03e
00000350: 2340 563b 9c43 8bbd 4a9a 00be d6a8 523e
00000360: 225b a23e 404d 25be 434c d4bd 21ce bd3e
00000370: 748a 2bbd 3b4d 513f db0d c2bd e057 bdbe
00000380: 472f b3bc df68 d53d c0bc adbd b1ea 7e39
00000390: b031 073f 7e5f a2bd acc4 9d3e e70f 173e
000003a0: c585 4e3f eda5 7ebd d3fa a13d 4ab3 e0be
000003b0: 0608 523e e96c f73e 53f9 9ebd 1977 30bc
000003c0: 724e 41bd f3a0 3b3e 5ebf d43e de54 0bbe
000003d0: bc29 adbe 4d35 a63e cca1 903d 973a af3e
000003e0: 7d39 ea3e 6d2d 44be 0287 953e 0ea7 5abe
000003f0: 4d31 abbd 3c28 d1be a273 fd3e 232a bfbe

l1.bias f4 [8]
0.5147136 0.99388915 0.7257695 0.22220579 0.84075135 0.31804213 0.15633765 0.45970622
00000000: 45c4 033f 856f 7e3f 08cc 393f ea89 633e
00000010: 7b3b 573f 6bd6 a23e fa16 203e 9d5e eb3e

l2.weight f4 [8, 8]
0.17406234 -0.23797134 -0.25609425 0.35181913 -0.29209 0.26862457 -0.250134 -0.11623789
0.543981 0.26938516 -0.35618952 0.4740595 0.4372237 1.0802253 0.6859351 -0.5788222
-1.1933873 1.0433645 0.7928013 1.067282 -0.34119698 -0.3898768 -0.008952131 0.36750898
0.8300022 0.8326426 -0.2887223 -0.087161526 0.86635476 0.38964567 -0.06265745 -1.0275966
-0.93540233 -0.3909372 -0.05839478 -0.3505449 1.4441918 -0.048630137 0.60884535 0.60171103
-0.6445259 1.3171816 0.93379533 0.69243234 0.71630216 -0.8719921 -0.62547237 -0.3374822
0.96708167 0.99334764 1.3167359 0.030510958 -0.70052016 -0.17584066 -0.49104905 1.4651457
-0.5963976 0.06107386 -0.25766268 0.6983889 0.3102889 1.3915464 1.1467167 0.5920561
00000000: 663d 323e c2ae 73be c91e 83be a321 b43e
00000010: d28c 95be 2989 893e 9011 80be 220e eebd
00000020: 5742 0b3f daec 893e 795e b6be edb7 f23e
00000030: c9db df3e d344 8a3f 7199 2f3f b12d 14bf
00000040: eac0 98bf f88c 853f 07f5 4a3f b29c 883f
00000050: 5fb1 aebe ef9d c7be f5ab 12bc 232a bc3e
00000060: 067b 543f 1128 553f 69d3 93be be81 b2bd
00000070: 6dc9 5d3f a37f c73e 8d52 80bd 4988 83bf
00000080: 8776 6fbf ec28 c8be 5d2f 6fbd 9f7a b3be
00000090: 47db b83f 6530 47bd 4add 1b3f bc09 1a3f
000000a0: a6ff 24bf 6899 a83f 360d 6f3f 3f43 313f
000000b0: 945f 373f e03a 5fbf f51e 20bf 78ca acbe
000000c0: aa92 773f 084c 7e3f cd8a a83f 1ef2 f93c
000000d0: 4a55 33bf 930f 34be c86a fbbe e589 bb3f
000000e0: 83ad 18bf 9528 7a3d 5dec 83be 9dc9 323f
000000f0: 30de 9e3e 311e b23f 9dc7 923f fd90 173f

l2.bias f4 [8]
-0.22295792 -0.010550246 0.24708329 0.60140324 0.6715147 0.85775936 0.74972653 -0.6333401
00000000: 154f 64be f0da 2cbc 6703 7d3e 90f5 193f
00000010: 63e8 2b3f 1e96 5b3f 14ee 3f3f 9422 22bf

l3.weight f4 [7, 8]
0.048550963 0.048381742 -1.1340679 -0.1176585 0.654142 -1.4839295 -0.7852607 0.73044384
0.1194008 0.48250365 0.18257666 0.32398757 -0.56045353 -0.45440832 -0.9178619 0.3043091
0.25835982 -0.9752287 -0.7434323 -1.2424046 -0.66824335 -1.1472868 0.94807076 -0.9386648
-0.124497995 0.4688969 -1.0463885 0.8361352 -1.5505338 0.060875338 0.09128686 -0.8236137
0.17627749 -1.2335799 0.88050413 -0.69447017 -0.169725 0.3808429 0.32814068 -0.84889525
0.21694693 -0.676783 0.3581016 -1.528936 0.2057149 -0.35935405 0.051786847 0.81847006
0.11655706 -0.31501007 -0.52315617 0.27041453 1.078068 0.33381355 -1.021456 -1.0327232
00000000: 60dd 463d ef2b 463d 2329 91bf f1f6 f0bd
00000010: da75 273f 67f1 bdbf d806 49bf 5efe 3a3f
00000020: 6888 f43d b80a f73e 60f5 3a3e b3e1 a53e
00000030: e279 0fbf 35a8 e8be fff8 6abf 67ce 9b3e
00000040: bd47 843e 97a8 79bf 9451 3ebf 1d07 9fbf
00000050: ff11 2bbf 4bda 92bf c4b4 723f 564c 70bf
00000060: cef8 febd 4113 f03e 0ff0 85bf f50c 563f
00000070: e477 c6bf 6b58 793d 9bf4 ba3d 59d8 52bf
00000080: 1682 343e f2e5 9dbf b868 613f ccc8 31bf
00000090: 64cc 2dbe d7fd c23e 0e02 a83e 3351 59bf
000000a0: 5627 5e3e a741 2dbf 1859 b73e 2db4 c3bf
000000b0: eda6 523e 41fd b7be 721e 543d 4187 513f
000000c0: 78b5 ee3d 0049 a1be 90ed 05bf c673 8a3e
000000d0: 22fe 893f 9ce9 aa3e 12bf 82bf 4630 84bf

l3.bias f4 [7]
-0.101764746 -0.6842086 0.42255273 0.4786142 -0.21482722 -0.17697728 0.18872012
00000000: 096a d0bd 4b28 2fbf d558 d83e ec0c f53e
00000010: abfb 5bbe 8839 35be d93f 413e
